…
output_file_prefix : AA1Test

Running on  CUDA 

Files already downloaded and verified
Files already downloaded and verified


Model Config: 
-------------------------------------
N (# Layers)	: 4 
B (# Blocks)	: [3, 3, 2, 3] 
C (# Channels)	: [64, 128, 128, 256] 
F (Conv Kernel)	: [3, 3, 3, 3] 
K (Skip Kernel)	: [1, 1, 1, 1] 
P (Pool Kernel)	: 4


Printing Model Summary...

----------------------------------------------------------------
        Layer (type)               Output Shape         Param #
================================================================
            Conv2d-1           [-1, 64, 32, 32]           1,728
       BatchNorm2d-2           [-1, 64, 32, 32]             128
            Conv2d-3           [-1, 64, 32, 32]          36,864
       BatchNorm2d-4           [-1, 64, 32, 32]             128
            Conv2d-5           [-1, 64, 32, 32]          36,864
       BatchNorm2d-6           [-1, 64, 32, 32]             128
        BasicBlock-7           [-1, 64, 32, 32]               0
            Conv2d-8           [-1, 64, 32, 32]          36,864
       BatchNorm2d-9           [-1, 64, 32, 32]             128
           Conv2d-10           [-1, 64, 32, 32]          36,864
      BatchNorm2d-11           [-1, 64, 32, 32]             128
       BasicBlock-12           [-1, 64, 32, 32]               0
           Conv2d-13           [-1, 64, 32, 32]          36,864
      BatchNorm2d-14           [-1, 64, 32, 32]             128
           Conv2d-15           [-1, 64, 32, 32]          36,864
      BatchNorm2d-16           [-1, 64, 32, 32]             128
       BasicBlock-17           [-1, 64, 32, 32]               0
           Conv2d-18          [-1, 128, 16, 16]          73,728
      BatchNorm2d-19          [-1, 128, 16, 16]             256
           Conv2d-20          [-1, 128, 16, 16]         147,456
      BatchNorm2d-21          [-1, 128, 16, 16]             256
           Conv2d-22          [-1, 128, 16, 16]           8,192
      BatchNorm2d-23          [-1, 128, 16, 16]             256
       BasicBlock-24          [-1, 128, 16, 16]               0
           Conv2d-25          [-1, 128, 16, 16]         147,456
      BatchNorm2d-26          [-1, 128, 16, 16]             256
           Conv2d-27          [-1, 128, 16, 16]         147,456
      BatchNorm2d-28          [-1, 128, 16, 16]             256
       BasicBlock-29          [-1, 128, 16, 16]               0
           Conv2d-30          [-1, 128, 16, 16]         147,456
      BatchNorm2d-31          [-1, 128, 16, 16]             256
           Conv2d-32          [-1, 128, 16, 16]         147,456
      BatchNorm2d-33          [-1, 128, 16, 16]             256
       BasicBlock-34          [-1, 128, 16, 16]               0
           Conv2d-35            [-1, 128, 8, 8]         147,456
      BatchNorm2d-36            [-1, 128, 8, 8]             256
           Conv2d-37            [-1, 128, 8, 8]         147,456
      BatchNorm2d-38            [-1, 128, 8, 8]             256
           Conv2d-39            [-1, 128, 8, 8]          16,384
      BatchNorm2d-40            [-1, 128, 8, 8]             256
       BasicBlock-41            [-1, 128, 8, 8]               0
           Conv2d-42            [-1, 128, 8, 8]         147,456
      BatchNorm2d-43            [-1, 128, 8, 8]             256
           Conv2d-44            [-1, 128, 8, 8]         147,456
      BatchNorm2d-45            [-1, 128, 8, 8]             256
       BasicBlock-46            [-1, 128, 8, 8]               0
           Conv2d-47            [-1, 256, 4, 4]         294,912
      BatchNorm2d-48            [-1, 256, 4, 4]             512
           Conv2d-49            [-1, 256, 4, 4]         589,824
      BatchNorm2d-50            [-1, 256, 4, 4]             512
           Conv2d-51            [-1, 256, 4, 4]          32,768
      BatchNorm2d-52            [-1, 256, 4, 4]             512
       BasicBlock-53            [-1, 256, 4, 4]               0
           Conv2d-54            [-1, 256, 4, 4]         589,824
      BatchNorm2d-55            [-1, 256, 4, 4]             512
           Conv2d-56            [-1, 256, 4, 4]         589,824
      BatchNorm2d-57            [-1, 256, 4, 4]             512
       BasicBlock-58            [-1, 256, 4, 4]               0
           Conv2d-59            [-1, 256, 4, 4]         589,824
      BatchNorm2d-60            [-1, 256, 4, 4]             512
           Conv2d-61            [-1, 256, 4, 4]         589,824
      BatchNorm2d-62            [-1, 256, 4, 4]             512
       BasicBlock-63            [-1, 256, 4, 4]               0
           Linear-64                   [-1, 10]           2,570
================================================================
Total params: 4,935,242
Trainable params: 4,935,242
Non-trainable params: 0
----------------------------------------------------------------
Input size (MB): 0.01
Forward/backward pass size (MB): 14.03
Params size (MB): 18.83
Estimated Total Size (MB): 32.87
----------------------------------------------------------------


Training...
…
